models/fully_connected_one_layer_mnist.pth (torch, 409488 bytes, 4 tensors)

fc1.weight f4 [128, 784]
0	0x3c87fbbc	0.016599528
1	0xbc6ad29a	-0.014332438
2	0xbc7f1a82	-0.015570285
3	0x3c6480a0	0.013946682
4	0x3cfc08f4	0.030765988
5	0xbbb4c8b2	-0.005517089
6	0x3ccd1188	0.025032774
7	0x3c831034	0.015998937
8	0x3cc43926	0.023953032
9	0x3ca95f86	0.020675432
10	0x3d1eb80b	0.038749736
11	0xbc8e5e16	-0.017378848
12	0xbc6be0ac	-0.014396828
13	0x3cf42df2	0.029807065
14	0x3c924b18	0.017858073
15	0xbb289b16	-0.0025727204
16	0x3d29a575	0.041417558
17	0x3c9a3f5c	0.01882904
18	0x3d1dd583	0.0385337
19	0x3cd0f59a	0.025507737
20	0x3c28d628	0.010304965
21	0x3c959b5a	0.018262554
22	0xbb98aa3f	-0.004658967
23	0x3d339fef	0.043853696
24	0x3d1a7473	0.03770871
25	0x3c3abf88	0.011398204
26	0x3c2a2e3e	0.010387002
27	0xbab12f70	-0.0013518166
28	0x3c13f35a	0.0090301875
29	0x3d1ab8eb	0.037774008
30	0xbba04929	-0.004891534
31	0x3cc90a0e	0.024540927
32	0xbbcc78a1	-0.006239966
33	0x3c4a8a98	0.012362145
34	0xb9a4967e	-0.00031392643
35	0x3d127713	0.03575809
36	0xbc8f863a	-0.017520059
37	0x3d06fdf8	0.032957047
38	0x3c81a383	0.015825039
39	0x3d41691d	0.047219384
40	0x3c2b8b98	0.010470293
41	0x3d3c6eb9	0.04600403
42	0xbc212558	-0.009835564
43	0xbdb75e1c	-0.08953497
44	0x3d448dc9	0.04798678
45	0xbc68082e	-0.014162106
46	0x3bb2c036	0.0054550422
47	0x3cc22437	0.02369891
48	0xbcaeaa68	-0.02132149
49	0x3bfe3ece	0.0077589517
50	0xbab50816	-0.0013811614
51	0x3d337d34	0.043820575
52	0x3cde1614	0.027110137
53	0x3d4c4479	0.049869988
54	0xbb194c1b	-0.002339131
55	0x3d136357	0.03598341
56	0x3d1f717b	0.038926583
57	0x3d270b8f	0.040782508
58	0xbc8cd71e	-0.01719242
59	0xbc762912	-0.01502444
60	0xbc83a62b	-0.016070446
61	0x3d141387	0.036151435
62	0xbc2eb05f	-0.010662167
63	0x3d27ecef	0.04099744
64	0x3c8e8a92	0.01740006
65	0x3d4d6d43	0.05015303
66	0x3d9762f9	0.073919244
67	0x3d4bc856	0.049751602
68	0x3d4fb702	0.05071164
69	0xbcfd7aab	-0.030942282
70	0x3cc4dbcb	0.024030587
71	0xbd1aa543	-0.037755262
72	0x3c511ee6	0.012763714
73	0x3cb9d6f2	0.022685502
74	0x3cc1fbd6	0.023679655
75	0xbd095f64	-0.033538237
76	0x3d43e9fa	0.04783056
77	0x3c638372	0.0138863195
78	0xbc545ddb	-0.01296183
79	0x3d3d7348	0.04625252
80	0x3c9268b5	0.017872194
81	0x3d429b08	0.04751113
82	0x3cda0bc8	0.026616946
83	0x3d18dba1	0.03731883
84	0xbc08ae12	-0.008342283
85	0x39cfa5c6	0.00039605628
86	0xbc9c7649	-0.019099372
87	0x3ce987bc	0.028507106
88	0x3be98d36	0.0071274294
89	0x3d088c8d	0.033337165
90	0x3ce0aad1	0.027425202
91	0x3c4f4260	0.012650102
92	0x3d98a809	0.07453925
93	0x3d81d5a3	0.06339576
94	0x3dc99f49	0.09844834
95	0x3e5c92b4	0.21540338
96	0x3e19f08d	0.15033169
97	0xbbeaceee	-0.007165781
98	0xbd110888	-0.035408527
99	0xbdd3675e	-0.1032245
100	0xbc7ba3e6	-0.015358901
101	0x3da4cfc8	0.08047444
102	0xbd3dd547	-0.046345975
103	0xbdb819d4	-0.08989301
104	0x3d0cef86	0.034408115
105	0x3d920219	0.07129306
106	0x3d93d201	0.072177894
107	0x3c9fd6bc	0.019511573
108	0x3d57f963	0.052728068
109	0xbc8afa71	-0.016965123
110	0x3c1e0667	0.009645081
111	0x3d058e2e	0.032606296
112	0x3cb0810a	0.021545906
113	0x3c971b94	0.018445767
114	0xbd1bb0ae	-0.03801029
115	0x3d04b0b9	0.0323951
116	0x3d19b5f4	0.03752704
117	0x3d0079d9	0.031366203
118	0xbc5ee5d8	-0.013604604
119	0x3c6d21de	0.014473407
120	0x3d642bb2	0.055705734
121	0xbd9d5906	-0.076829955
122	0xbd985f10	-0.07440007
123	0x3d1a1052	0.03761322
124	0x3d7ada2a	0.061243214
125	0x3da846c7	0.08216625
126	0x3d021d6b	0.031766336
127	0xbdb11c5f	-0.086479895
128	0xbd41e7d7	-0.04734024
129	0x3d54d9bb	0.051965456
130	0xbc2380c9	-0.009979435
131	0xbd43bb5f	-0.047786113
132	0x3c80665b	0.015673807
133	0x3d557777	0.052115884
134	0x3d86a02a	0.065735176
135	0x3ca9db5c	0.020734482
136	0xbc96176d	-0.018321717
137	0xbd1295a3	-0.035787236
138	0x3b3f5e13	0.002920036
139	0x3cb9a217	0.022660298
140	0x3c9fe7c2	0.01951969
141	0x3d4ed39b	0.05049477
142	0x3d0a8505	0.033818264
143	0x3cc0ad59	0.023520159
144	0x3d90ced4	0.07070699
145	0x3df94548	0.121714175
146	0x3c80d83c	0.015728109
147	0xbd21a817	-0.039466944
148	0xbc33ea18	-0.010981105
149	0xbe23fd85	-0.16014679
150	0xbe6fdada	-0.23423329
151	0xbe533ba8	-0.20628226
152	0xbe13c285	-0.14429672
153	0x3b180619	0.0023196994
154	0x3d4a4032	0.049377628
155	0x3d685c1b	0.056728464
156	0xbbe14155	-0.0068742433
157	0x3c43a21b	0.011940504
158	0xbc885393	-0.016641414
159	0xbdeafe6e	-0.1147431
160	0xbda670ce	-0.081269845
161	0xbdaad7e7	-0.08341961
162	0xbda07618	-0.078350246
163	0xbd997af3	-0.07494154
164	0xbb80064b	-0.003907
165	0xbcfca005	-0.030838022
166	0xbb3ed3cc	-0.002911794
167	0x3cc2f453	0.023798143
168	0x3d34e243	0.044161092
169	0x3d2cb8a1	0.042168263
170	0xbb90e37d	-0.00442165
171	0x3c6749d7	0.014116726
172	0x3d102702	0.03519345
173	0x3d821285	0.063511886
174	0xbd077de2	-0.033079036
175	0xbdd0a51c	-0.10187742
176	0xbdafaf83	-0.08578398
177	0xbe77ee63	-0.24212031
178	0xbe9e6736	-0.3093812
179	0xbea35a5c	-0.31904876
180	0xbe34bd76	-0.17650399
181	0xbd8120ba	-0.0630507
182	0xbd8acaa3	-0.06776931
183	0xbd31816c	-0.043336317
184	0x3cdb26a8	0.026751831
185	0xbc0aa4ad	-0.008462113
186	0xbcb06370	-0.02153179
187	0xbd99441c	-0.07483694
188	0xbd594343	-0.05304266
189	0xbbc1d855	-0.0059156814
190	0xbca17f03	-0.019713884
191	0xbe33f2ed	-0.17573138
192	0xbd4a8511	-0.04944331
193	0x3d3df24c	0.04637365
194	0x3d50d5f0	0.050985277
195	0x3ca9fb48	0.020749703
196	0xbc582fa6	-0.013194954
197	0x3ca8e5d8	0.02061741
198	0x3cccc6e6	0.024997186
199	0x3d091024	0.03346266
200	0xbd429f40	-0.047515154
201	0xbc8355bc	-0.016032092
202	0xbd89ce88	-0.06728846
203	0xbd9a14fb	-0.07523533
204	0xbd07c79c	-0.033149347
205	0xbe6a2acd	-0.2286789
206	0xbea44b4f	-0.32088706
207	0xbdc6bf29	-0.0970443
208	0xbe138a74	-0.14408284
209	0xbdeff968	-0.11717492
210	0x3bab8d47	0.0052353474
211	0xbcc3be5e	-0.023894485
212	0xbd0f07a4	-0.034919396
213	0x3ca15e6e	0.019698348
214	0x3ab215df	0.001358684
215	0xbc6351ae	-0.013874454
216	0xbd57491d	-0.05255996
217	0x3d228f2d	0.039687324
218	0x3dcd6048	0.1002813
219	0xbdd35de2	-0.10320641
220	0xbce2843b	-0.027650943
221	0x3d7e1776	0.062034093
222	0x3d547ba4	0.051875725
223	0x3d476971	0.04868454
224	0x3c66c6c4	0.014085475
225	0xbb65bdea	-0.0035055825
226	0x3c45feed	0.012084705
227	0xbd0e43c1	-0.034732584
228	0xbdbbbe2a	-0.0916713
229	0xbd04c029	-0.03240982
230	0xbd635c0f	-0.055507716
231	0xbe238eb6	-0.15972409
232	0xbe37b68f	-0.17940734
233	0xbe614db7	-0.22002302
234	0xbe4ea34b	-0.20179479
235	0xbe2fe745	-0.17178066
236	0xbe40f7c5	-0.18844517
237	0xbd9842e7	-0.074346356
238	0xbd7b189e	-0.061302774
239	0xbc08b428	-0.008343734
240	0xbbe30302	-0.006927849
241	0xbc895f3e	-0.016769048
242	0xbdf0a409	-0.11750037
243	0xbe127503	-0.14302449
244	0xbb941fbf	-0.004520386
245	0xbd69f4f4	-0.05711837
246	0xbb646725	-0.0034851518
247	0xbcdd2073	-0.026993012
248	0xbdc98516	-0.09839837
249	0x3d071325	0.032977242
250	0xbd1cd8c2	-0.038292654
251	0x3c738170	0.014862403
252	0x3972b4ec	0.00023146317
253	0x3cf68dcd	0.030096913
254	0xbc08986e	-0.008337123
255	0xbc981558	-0.018564865

fc1.bias f4 [128]
0	0x3c16f55f	0.009213774
1	0x3c01f1ee	0.007931216
2	0x3c9ce558	0.019152328
3	0xbcb8427b	-0.022492638
4	0xbca3d959	-0.0200011
5	0xbc9c571f	-0.019084511
6	0xbb08ac6c	-0.0020854725
7	0x3cd80cd4	0.026373304
8	0x3b989997	0.004656981
9	0x3b8adcbe	0.0042377403
10	0xbd3a5043	-0.0454867
11	0x3c4a8b6e	0.012362344
12	0xbd86c1f7	-0.065799646
13	0xbca2308f	-0.019798545
14	0x3cb3b127	0.021935059
15	0x3d17ab23	0.037028443
16	0xbcb0e2be	-0.021592494
17	0x3c123b2f	0.008925243
18	0x3c997837	0.01873408
19	0x3c0ee41f	0.0087213805
20	0x39f953a0	0.00047555286
21	0xbbd551d8	-0.0065100007
22	0xbd5b2582	-0.053502567
23	0x3d534e83	0.051588546
24	0x3d2cadab	0.04215781
25	0x3d297c42	0.041378267
26	0xba881828	-0.0010383176
27	0x3d1b8228	0.037965924
28	0x3d1282e9	0.035769377
29	0xbc9db0e2	-0.019249383
30	0x3c0c0e8f	0.008548393
31	0x3c23fcda	0.010009015
32	0x3bba512f	0.0056859474
33	0x3d058cdb	0.032605033
34	0x3d58098f	0.05274349
35	0xba4d84a3	-0.0007839894
36	0xbc905a72	-0.017621253
37	0xbd5662e4	-0.052340403
38	0x3c1606c3	0.009156886
39	0xbd7c9752	-0.061667748
40	0x3cab35f0	0.020899743
41	0xbc890ab4	-0.016728736
42	0xbd333d43	-0.043759596
43	0x3cc7218f	0.024307994
44	0xbd666b12	-0.056254454
45	0xbbebf1c3	-0.007200451
46	0xbd2786fa	-0.040900208
47	0x3b78d64d	0.003796953
48	0xbc851e6b	-0.016249856
49	0x3c8505fb	0.016238203
50	0x3ca114aa	0.019663174
51	0x3cc1daac	0.023663841
52	0x3c930d6e	0.01795074
53	0x3b0dfebd	0.0021666728
54	0x3c4f2c18	0.01264479
55	0x3c36a2b3	0.011147189
56	0x3aa76de3	0.0012773838
57	0xbce5e68a	-0.028064031
58	0xbcac7340	-0.02105105
59	0x3c1031f3	0.008800971
60	0xbc68bfc4	-0.014205877
61	0x3cdb4e6f	0.026770798
62	0x3b8bc1ee	0.0042650616
63	0xbcf7d872	-0.030254576
64	0x3c204944	0.009783093
65	0x3c34a000	0.011024475
66	0x3a95209e	0.0011377519
67	0xbd1321aa	-0.035920776
68	0xbd0a7397	-0.03380164
69	0xbd53e7fa	-0.051734902
70	0xbc3eb6a2	-0.011640223
71	0xbca1ce0f	-0.019751577
72	0xbcee44b5	-0.029085496
73	0x3ac76c5c	0.0015214789
74	0xbd0f3645	-0.034963865
75	0xbc420831	-0.011842773
76	0x3c646725	0.013940607
77	0x3ae7daf0	0.001768915
78	0xbd1d196f	-0.038354333
79	0xbcef8fbb	-0.02924334
80	0x3d061bd5	0.032741386
81	0x3abbf53c	0.0014340053
82	0xbd632e58	-0.05546412
83	0xbcca99b5	-0.024731496
84	0x396f61ea	0.00022829292
85	0xbc803ec0	-0.015654922
86	0xbb209d80	-0.002450794
87	0x3b8cb112	0.0042935694
88	0x3c58af6e	0.013225419
89	0xbb1653b8	-0.0022938084
90	0x3c95c447	0.018282069
91	0x3c2ba4cb	0.010476301
92	0xbd1c66cc	-0.038183972
93	0xbc135dd9	-0.008994543
94	0xbd3c22d3	-0.04593165
95	0xbd2e1416	-0.042499624
96	0xbcb82916	-0.022480529
97	0x3d297888	0.041374713
98	0xbcdcbcf0	-0.026945561
99	0xbd00cdbe	-0.03144621
100	0x3d3ca892	0.0460592
101	0xbd1adc41	-0.037807707
102	0xbc17e84e	-0.009271694
103	0xbc4508a6	-0.012025988
104	0x3d0cd04b	0.03437833
105	0x3c2e9e67	0.010657883
106	0xbba555f1	-0.0050456454
107	0xba3a8bfb	-0.00071161956
108	0x3c5d7deb	0.013518791
109	0xbd058ee4	-0.032606974
110	0xbd2b929d	-0.04188787
111	0x3b77e574	0.0037825974
112	0xbd181e1e	-0.037138097
113	0xbd20820d	-0.039186526
114	0x3d00ea2b	0.03147332
115	0x3d0c1970	0.034203947
116	0xbc3f1479	-0.011662596
117	0xbcd66088	-0.026169077
118	0xbcceb4f4	-0.02523277
119	0xbd803665	-0.06260375
120	0xbc998329	-0.0187393
121	0x3c043a55	0.008070548
122	0xbca15ecd	-0.019698525
123	0xbca125dd	-0.019671375
124	0xbd15eade	-0.03660094
125	0x3d36bb3f	0.044612166
126	0x3abe09c0	0.0014498755
127	0xbb3043c4	-0.002689586

fc2.weight f4 [10, 128]
0	0x3de890aa	0.113557175
1	0x3cc35575	0.02384446
2	0x3dc438e0	0.095811605
3	0xbd40f11f	-0.04710495
4	0x3de76d00	0.11300087
5	0xbd91c906	-0.0711842
6	0xbe950dd2	-0.29112107
7	0xbec03e83	-0.37547693
8	0xbe027994	-0.12741691
9	0xbddd3030	-0.10800207
10	0xbc3cbdf1	-0.011519895
11	0x3e2d6e83	0.16936688
12	0x3da51d8f	0.080622785
13	0x3e5d0d76	0.21587166
14	0x3e294f52	0.16534165
15	0x3e0d38e9	0.13791241
16	0x3d323558	0.043507904
17	0x3c83121d	0.015999848
18	0x3d0ea664	0.03482665
19	0xbe909a34	-0.28242648
20	0x3daa4e38	0.083157
21	0xbeea2e4b	-0.45738444
22	0x3d88bd64	0.066767484
23	0x3e2fb3df	0.17158459
24	0x3beeb84d	0.007285154
25	0x3cb474f4	0.022028424
26	0x3e134010	0.14379907
27	0xbe04b04a	-0.12957874
28	0x3d93e70e	0.072218046
29	0xbb8c4893	-0.0042811125
30	0x3e05433a	0.13013926
31	0x3d9c8324	0.076422006
32	0x3cb3a4cc	0.021929167
33	0x3e2297fd	0.15878291
34	0x3e1377d4	0.1440118
35	0xbe20bb00	-0.15696335
36	0x3d9d9238	0.07693905
37	0x3e25b3a7	0.16181813
38	0x3c9d7d84	0.01922489
39	0xbebc0466	-0.36722106
40	0xbe11e9c8	-0.14249337
41	0xbe903043	-0.2816182
42	0x3d0899c5	0.03334977
43	0xbe616014	-0.22009307
44	0x3df3b4a0	0.11899686
45	0xbe171b28	-0.14756453
46	0xbed5bc5c	-0.4174527
47	0xbc3186ce	-0.010835363
48	0xbe4dd5cd	-0.2010109
49	0x3da8d384	0.082434684
50	0x3d344ac9	0.044016633
51	0x3c1d5333	0.009602356
52	0xbec773b1	-0.38955453
53	0x3dd6077d	0.10450647
54	0xbe8e4719	-0.27788618
55	0x3e5150ab	0.20440929
56	0x3b96250c	0.004582053
57	0xbcf5f5ae	-0.030024376
58	0x3e2ffb30	0.17185664
59	0x3e17db9b	0.14829867
60	0xbdb430ab	-0.08798345
61	0x3e1db41a	0.15400735
62	0xbef2ea69	-0.47444466
63	0x3c32a25a	0.010902965
64	0xbea09e3b	-0.3137072
65	0xbcdf0216	-0.027222674
66	0xbdd67416	-0.104713604
67	0x3ddc6130	0.107607245
68	0xbee208d6	-0.44147366
69	0xbcf9f0db	-0.030510357
70	0x3d319f7f	0.043364998
71	0xbc25833d	-0.01010209
72	0xbeaa3ae8	-0.33248067
73	0x3de99950	0.11406195
74	0x3e58414d	0.2111866
75	0x3dbed424	0.09317806
76	0xbe81f9bb	-0.25385842
77	0xbb826027	-0.0039787474
78	0x3e80f626	0.25187796
79	0xbe72416a	-0.23657766
80	0x3e6db6fd	0.23214336
81	0xbf037398	-0.5134826
82	0x3de4e028	0.11175567
83	0x3d61a281	0.055086616
84	0xbe0fbf3b	-0.14037792
85	0xbe6c9a7b	-0.23105805
86	0x3d378a5a	0.044809677
87	0xbebf08ff	-0.3731155
88	0x3d3b84d2	0.045780964
89	0x3d2e3b86	0.042537235
90	0x3e133801	0.14376833
91	0xbca4e945	-0.020130763
92	0xbdab8acf	-0.08376085
93	0x3d0745a6	0.033025406
94	0xbd1d21ce	-0.038362317
95	0x3c226915	0.009912749
96	0x3d3a05cf	0.045415696
97	0xbeb41293	-0.3517042
98	0x3d34e94a	0.044167794
99	0xbcc92964	-0.02455587
100	0xbdfe11cd	-0.12405739
101	0xbe9dae86	-0.30797213
102	0xbcc81f55	-0.024429003
103	0xbe292d8d	-0.16521282
104	0xbe5e77a3	-0.21725325
105	0x3ca5ad60	0.020224273
106	0xbe43f892	-0.19137791
107	0x3e087290	0.13324952
108	0xbdc28242	-0.09497501
109	0xbdf4a986	-0.119463965
110	0x3e0865eb	0.13320129
111	0xbe26484b	-0.16238515
112	0xbd9b6589	-0.07587726
113	0x3e21e627	0.15810452
114	0xbe243951	-0.1603749
115	0xbe82e2b5	-0.2556359
116	0x3e262e06	0.16228494
117	0x3dcd3684	0.10020164
118	0x3e35a058	0.17736948
119	0x3defac0e	0.11702739
120	0xbdd70fd8	-0.10501069
121	0xbe7a4d64	-0.24443585
122	0x3d9c8338	0.076422155
123	0x3ce60135	0.028076747
124	0xbe35dec0	-0.17760754
125	0xbdbcdb9d	-0.092215754
126	0xbe8fcd2d	-0.28086224
127	0xbeeb4cb7	-0.45956966
128	0xbefc4715	-0.4927298
129	0x3dc9cce0	0.0985353
130	0xbe29109a	-0.16510239
131	0xbd1b232d	-0.037875343
132	0x3ec13270	0.37733793
133	0xbd548af2	-0.05189032
134	0xbe281943	-0.16415887
135	0x3d895c78	0.0670709
136	0xbc87f0f5	-0.01659439
137	0xbe7fc541	-0.2497759
138	0x3ddca499	0.10773582
139	0xbece076c	-0.40240037
140	0x3deae420	0.11469293
141	0x3d93b163	0.07211568
142	0xbed7422f	-0.42042682
143	0xbe36e6a6	-0.17861423
144	0xbd4e59c0	-0.05037856
145	0x3ddfbd91	0.10924829
146	0xbda06d20	-0.07833314
147	0x3db91a55	0.090382256
148	0x3d545f71	0.051848833
149	0x3d97cc44	0.074120075
150	0xbdba1bdd	-0.09087346
151	0xbde01f08	-0.10943419
152	0xbec45e3d	-0.38353148
153	0xbd8bb584	-0.06821731
154	0x3d29bd00	0.04144001
155	0x3d73bb98	0.059505075
156	0xbddaf06f	-0.1069039
157	0x3ce226f8	0.027606472
158	0x3f064759	0.5245262
159	0xbd47e019	-0.0487977
160	0xbea23461	-0.31680587
161	0x3e5b688a	0.21426597
162	0xbe0902bd	-0.13379951
163	0xbd323f26	-0.043517254
164	0xbe9a8511	-0.30179647
165	0xbe037b57	-0.12840019
166	0xbee64bd0	-0.44979715
167	0x3e675a6f	0.22593091
168	0x3df448b2	0.11927928
169	0x3dce4039	0.10070843
170	0xbefc77d3	-0.4931017
171	0x3df7e034	0.1210331
172	0xbe839c25	-0.25705066
173	0xbe92a9b0	-0.28645086
174	0x3c0cce8e	0.008594168
175	0xbe3628eb	-0.17789046
176	0x3e21a77f	0.15786551
177	0xbde88272	-0.113530055
178	0xbeac0767	-0.33599398
179	0xbe65a95d	-0.22427888
180	0x3d4c1866	0.049827956
181	0xbdedbe2e	-0.116085395
182	0xbc8afab8	-0.016965255
183	0x3dd72b97	0.10506361
184	0xbd83db24	-0.06438282
185	0x3d4da5fc	0.050207123
186	0xbd71b0ab	-0.059006374
187	0xbe9de72a	-0.30840427
188	0xbca38b40	-0.01996386
189	0x3e2fde97	0.17174755
190	0xbd95f0d6	-0.073213264
191	0xbe04e33f	-0.12977313
192	0xbc4dc6ec	-0.012559634
193	0xbd5a8d24	-0.05335726
194	0xbea20f9c	-0.31652534
195	0xbe4f62bd	-0.2025251
196	0x3e048fa6	0.12945423
197	0x3dd64193	0.10461726
198	0xbca528df	-0.02016109
199	0xbd03ecb4	-0.03220816
200	0x3e1cbd0a	0.15306488
201	0xbece45ed	-0.40287724
202	0x3db446af	0.08802544
203	0xbdea16fd	-0.11430166
204	0xbdc9a3f2	-0.09845723
205	0xbaaf461d	-0.0013372336
206	0x3d16d6e9	0.036826048
207	0xbcaa683e	-0.02080166
208	0x3d1c9cc7	0.038235452
209	0xbe71585b	-0.23568861
210	0xbcc222d3	-0.023698246
211	0xbea70c11	-0.32626393
212	0x3d5b7dd7	0.053586807
213	0x3e84ce1f	0.25938508
214	0x3d921e5a	0.07134695
215	0x3d7795eb	0.060445707
216	0xbac11b0a	-0.001473279
217	0xbdc3d86b	-0.09562763
218	0xbd70a52f	-0.05875128
219	0xbe1ccaa5	-0.15311678
220	0x3efa21a7	0.488538
221	0x3d932dce	0.07186471
222	0xbe5e9b0b	-0.21738832
223	0x3d8224a0	0.06354642
224	0x3e2a5032	0.16632155
225	0xbd0206c6	-0.03174474
226	0x3e024680	0.12722206
227	0x3bd42133	0.006473684
228	0x3d95836f	0.073004596
229	0xbe4854c8	-0.19563591
230	0x3d8893ce	0.066688165
231	0x3db51670	0.0884217
232	0x3d697e45	0.057005186
233	0xbe2b7ad2	-0.16746071
234	0xbdb9331a	-0.0904295
235	0xbb65443b	-0.0034983295
236	0x3f017d97	0.5058226
237	0x3dc53875	0.09629909
238	0xbeb826bd	-0.35967055
239	0xbca493e9	-0.02009006
240	0xbe15c0e6	-0.14624366
241	0x3d52b01b	0.05143748
242	0x3b194eb5	0.002339286
243	0x3dce8d23	0.100855134
244	0xbe2de619	-0.16982307
245	0x3e960c59	0.29306296
246	0xbd7dae23	-0.061933648
247	0x3db677e1	0.08909584
248	0xbc88074a	-0.016605038
249	0x3da70a41	0.08156253
250	0xbbfd9ca0	-0.0077396184
251	0x3d4a3c00	0.049373627
252	0x3c280849	0.010255882
253	0xbe19645c	-0.1497969
254	0xbe14287f	-0.14468573
255	0xbcbbc891	-0.022922786

fc2.bias f4 [10]
0	0xbe0bcee6	-0.13653144
1	0xbc96c0c9	-0.018402474
2	0xbc84905a	-0.016182113
3	0x3d515139	0.05110285
4	0xbbce43b2	-0.006294691
5	0x3d31efa4	0.04344143
6	0x3d18a01e	0.037262075
7	0xbde3a4b2	-0.111153975
8	0x3e51adcf	0.20476459
9	0xbd74c7d2	-0.059760876
