models/fully_connected_one_layer_mnist_softmax.pth (torch, 409552 bytes, 4 tensors)

fc1.weight f4 [128, 784]
0	0x3d644313	0.05572803
1	0x3d53b57f	0.05168676
2	0x3cfe43d5	0.031038204
3	0x3c13cba2	0.009020718
4	0x3c547881	0.0129681835
5	0x3943fe44	0.0001869137
6	0x3c9d0a3f	0.019169925
7	0x3d277e35	0.040891845
8	0xbc0fd7ce	-0.008779479
9	0xbb68f172	-0.0035544303
10	0x3d65c0ef	0.0560922
11	0x3c3ca6c2	0.011514368
12	0x3d3f1c9b	0.04665814
13	0x3cc3ae5c	0.023886852
14	0x3d0c7fdb	0.03430162
15	0xb92fe4ec	-0.0001677458
16	0x3c0b3408	0.008496292
17	0xbbb8a509	-0.005634908
18	0xbbc3d981	-0.005976856
19	0x3c2f3db6	0.010695865
20	0xba70cf76	-0.00091861875
21	0x3cd7cf69	0.026344018
22	0x3c0673ce	0.008206321
23	0x3d4f4987	0.05060723
24	0x3c379ebe	0.011207281
25	0x3bdfcfd9	0.0068301973
26	0x3d3aa041	0.045562986
27	0x3d61b42b	0.055103462
28	0x3c77cf31	0.015125082
29	0xbc2945cc	-0.010331582
30	0x3ce783bf	0.028261064
31	0x3b74177c	0.0037245443
32	0x3c984bbb	0.018590799
33	0x3d2c9fd3	0.042144608
34	0xb9fde02c	-0.00048422941
35	0x3cbec3ca	0.023286719
36	0xbb915fdc	-0.004436476
37	0x3c208d95	0.009799381
38	0x3d0695fb	0.032857876
39	0x3bdeb11e	0.0067960164
40	0x3cfe74bc	0.031061523
41	0x3c1d99e3	0.009619209
42	0x3d2eeda1	0.04270709
43	0x3db383d0	0.087653756
44	0xbc555d95	-0.0130228
45	0x3cd59949	0.026074069
46	0x3d895b1d	0.067068316
47	0x3ccd597e	0.025067087
48	0x3d0ed957	0.03487524
49	0x3d8dea2d	0.06929431
50	0x3d81b835	0.06333963
51	0x3d255e3b	0.04037307
52	0xbc567fd4	-0.013092
53	0x3cd1ef7b	0.025626888
54	0x3d474bed	0.048656393
55	0x3bbea59f	0.0058180834
56	0x3c7be60f	0.015374674
57	0xbba87bbd	-0.005141704
58	0xbb357896	-0.0027690283
59	0x39e4175a	0.00043504947
60	0x3d538549	0.051640783
61	0x3d6de693	0.05808122
62	0x3c9ed18e	0.019387033
63	0x3d317762	0.043326743
64	0x3cf6c3d4	0.030122675
65	0x3d6b943e	0.05751442
66	0x3d7e9ac4	0.062159315
67	0x3d2f9f4f	0.042876538
68	0x3ba4485c	0.0050135087
69	0xba4afcde	-0.00077433686
70	0x3d027153	0.031846356
71	0x3db41065	0.087921895
72	0x3cc9ce5d	0.024634534
73	0x3d920ff0	0.07131946
74	0x3da2f0a8	0.07956058
75	0x3db9d2d1	0.09073413
76	0x3db39b01	0.08769799
77	0x3d99a7d5	0.075027145
78	0x3d8f09e6	0.0698431
79	0x3cbc4229	0.022980766
80	0x3c94dbfa	0.0181713
81	0x3cc95ceb	0.02458044
82	0x3d15b677	0.036550965
83	0x3d019cea	0.031643786
84	0x3d20bcb5	0.039242465
85	0x3d4fa3e3	0.050693404
86	0x3d576bf0	0.05259317
87	0xbc0c7260	-0.008572191
88	0x3c2e0572	0.010621415
89	0x3d47e34b	0.048800748
90	0x3c2d5178	0.010578506
91	0xbc194241	-0.009354175
92	0x3c0e1269	0.0086713815
93	0xbab5fa01	-0.0013883711
94	0xbdaafe8e	-0.08349334
95	0xbddc253b	-0.10749289
96	0xbe1a8227	-0.15088712
97	0xbe054e45	-0.13018139
98	0xbd7a0069	-0.061035547
99	0x3d36b847	0.044609334
100	0x3d6f6eaf	0.058455165
101	0x3da030ac	0.078217834
102	0x3e09a882	0.13443187
103	0x3e134604	0.14382178
104	0x3dec6ede	0.11544584
105	0x3d9d6987	0.07686143
106	0x3d874808	0.06605536
107	0x3cf772e3	0.03020615
108	0x3d541a21	0.05178273
109	0x3d0b7328	0.03404537
110	0x3d043574	0.03227754
111	0x3cfe2e55	0.031027952
112	0x3d26e8e9	0.040749464
113	0x3d536341	0.051608328
114	0x3bbf013d	0.005829005
115	0x3d1d6ba0	0.038432717
116	0x3c912a3b	0.017720332
117	0x3bb09fd6	0.0053901477
118	0x3c8235fe	0.015894886
119	0x3c5631b5	0.0130733745
120	0xbd027220	-0.03184712
121	0xbdf2d095	-0.1185619
122	0xbe0f04a1	-0.1396661
123	0xbe6bbb5f	-0.23020695
124	0xbea0da78	-0.31416678
125	0xbe8c0410	-0.2734685
126	0xbe210228	-0.15723479
127	0xbd80b94d	-0.06285343
128	0xbcb2ba83	-0.021817451
129	0x3dde9705	0.108686484
130	0x3dc0c197	0.09411924
131	0x3d99df50	0.075132966
132	0x3e3e0c7a	0.18559447
133	0x3e2c223f	0.16809939
134	0x3dfcb249	0.12338693
135	0x3d0cdcde	0.034390323
136	0xbd0515ff	-0.03249168
137	0x3ca08ee0	0.019599378
138	0x3d275c0b	0.040859263
139	0x3d2ba5dd	0.041906226
140	0x3d2b60df	0.04184043
141	0x3bd98861	0.006638572
142	0x3ca50e8c	0.020148538
143	0x3cf466e5	0.02983422
144	0x3c1bdda0	0.009513289
145	0xbc6c31fc	-0.014416214
146	0xbb867b9b	-0.0041040904
147	0xbd025fa3	-0.031829488
148	0xbd8dc1d1	-0.06921733
149	0xbe10439d	-0.14088292
150	0xbe408375	-0.18800147
151	0xbe88ef5a	-0.2674511
152	0xbe8b2375	-0.2717549
153	0xbe61d00c	-0.2205202
154	0xbe368218	-0.17823064
155	0xbdefe50a	-0.117136076
156	0xbc9f4ef8	-0.019446835
157	0x3dafe37a	0.085883096
158	0x3d84375d	0.06455872
159	0x3e439325	0.190991
160	0x3df470e1	0.119355924
161	0x3dbf6569	0.09345514
162	0x3cd39ea7	0.025832487
163	0x3d47f31b	0.048815828
164	0x3bd5f681	0.0065296297
165	0xb9acfcde	-0.00032994797
166	0x3c287fb5	0.010284354
167	0x3c69808f	0.014251842
168	0x3d1fda7d	0.039026726
169	0x3d115323	0.035479676
170	0x3cb931af	0.022606699
171	0xbac50fb0	-0.0015034582
172	0xba6296f3	-0.0008643709
173	0xbd02e7a6	-0.0319592
174	0xbce7f567	-0.02831526
175	0xbd71ed0a	-0.05906395
176	0xbe2551fb	-0.16144554
177	0xbe84b891	-0.25922063
178	0xbe5dab39	-0.21647348
179	0xbe956954	-0.2918192
180	0xbe8a2af3	-0.26985893
181	0xbe197d4e	-0.14989206
182	0x3d119d4a	0.035550393
183	0x3dd220b5	0.102601446
184	0x3defb4a3	0.117043756
185	0x3e3515d2	0.17684105
186	0x3d929626	0.07157545
187	0x3da524f7	0.08063691
188	0x3d5597ef	0.05214685
189	0xbc81f8b0	-0.015865654
190	0xbd45a528	-0.04825321
191	0xbdeaf822	-0.11473109
192	0xbdbaebfa	-0.0912704
193	0xbb5af450	-0.0033409782
194	0xbc8a6979	-0.016895996
195	0x3d53f700	0.05174923
196	0xbbf02a7c	-0.0073292833
197	0x3d456a90	0.04819733
198	0x3d1c7c6b	0.03820459
199	0x3ce73c14	0.02822689
200	0xbd14931e	-0.036273114
201	0xbccdb65a	-0.025111366
202	0xbdac7db4	-0.084224135
203	0xbe102d67	-0.1407982
204	0xbe8065b9	-0.25077608
205	0xbea8efec	-0.32995546
206	0xbeacbac9	-0.33736256
207	0xbe94c2d5	-0.29054895
208	0xbdcb007f	-0.09912204
209	0xbcb15b2a	-0.021649916
210	0x3df14f21	0.11782671
211	0x3e54714c	0.20746344
212	0x3dbbcd93	0.091700695
213	0x3db84366	0.0899723
214	0x3d2a632a	0.041598476
215	0x3d0d984e	0.034569077
216	0x3dea7fab	0.11450132
217	0x3d1b3384	0.037890926
218	0xbcdb90c7	-0.026802434
219	0xbddfd5be	-0.1092944
220	0xbd1e2b24	-0.03861536
221	0xbd18dc50	-0.03731948
222	0x3c74a62f	0.014932199
223	0xbc01d5ff	-0.007924556
224	0x3d5a7b48	0.053340226
225	0xba0e5e0e	-0.00054308854
226	0x39b3ae40	0.00034271367
227	0x3c46d420	0.0121355355
228	0xbcd3d52c	-0.025858484
229	0xbd72245c	-0.059116706
230	0xbde36a57	-0.11104267
231	0xbe5257c7	-0.20541297
232	0xbe8d76df	-0.27629754
233	0xbea715ba	-0.32633764
234	0xbe717c37	-0.2358254
235	0xbda08d18	-0.078394115
236	0x3d8ae891	0.0678264
237	0x3dda554b	0.106607996
238	0x3dab1ba2	0.0835488
239	0x3dec6088	0.115418494
240	0x3d92cdb5	0.07168142
241	0xbc137760	-0.009000629
242	0xbd1bfac4	-0.038080946
243	0xbd4c7579	-0.04991672
244	0xbd9fdfc1	-0.078063495
245	0x3c8036fe	0.015651222
246	0xbd8fdcd2	-0.0702454
247	0xbdd89670	-0.10575569
248	0xbd68dce0	-0.056851268
249	0xbcc1e6a6	-0.023669552
250	0x3a8948d2	0.0010473973
251	0x3bb0a7c6	0.005391094
252	0x3cf0df0f	0.029403238
253	0x3d0debf1	0.03464884
254	0x3d001092	0.031265803
255	0xbc390910	-0.011293665

fc1.bias f4 [128]
0	0xbc90da9f	-0.017682372
1	0xbc97a089	-0.018509166
2	0x3d38fed9	0.045164917
3	0x3d656d2d	0.05601232
4	0xbc67c49a	-0.014145995
5	0x3cffb6b4	0.03121505
6	0xbd017891	-0.03160912
7	0xbd04e10e	-0.03244119
8	0xbd13b8dd	-0.03606497
9	0xbcd5310f	-0.02602437
10	0x3c8889f4	0.016667344
11	0xbb6f2a0c	-0.0036493568
12	0x3bce3d9b	0.006293965
13	0xbc573530	-0.0131352395
14	0x3d11676c	0.03549902
15	0xbc41b21d	-0.011822251
16	0x3cd367ba	0.025806297
17	0x3ba7ce6d	0.0051210434
18	0xbd02e323	-0.031954896
19	0x3d2d09d4	0.0422457
20	0xbcc33119	-0.023827123
21	0xbd0c9420	-0.03432095
22	0xbc3291c5	-0.010899012
23	0x3cb8d449	0.022562163
24	0x3ca1f8fe	0.019772049
25	0xbd2a3c47	-0.04156139
26	0xbd24b388	-0.040210277
27	0x3c212f9f	0.009838014
28	0x3c369999	0.011145019
29	0xbce2a1f4	-0.027665116
30	0x3c76b765	0.015058373
31	0xbcdb99e3	-0.026806777
32	0x3d2b053f	0.04175305
33	0x3c494264	0.012283895
34	0x392f0f1c	0.00016694929
35	0x3cc93f62	0.024566356
36	0xbd06ed93	-0.032941412
37	0xbd2d1324	-0.042254582
38	0x3c5e4ec2	0.013568582
39	0x3d40d25f	0.047075626
40	0xbb39b97a	-0.0028339312
41	0xbd0d5194	-0.034501627
42	0xbd28d1b3	-0.04121561
43	0xbc8244d8	-0.015901968
44	0x3b81f0be	0.0039654663
45	0xbcfae6c0	-0.030627608
46	0xbcf1cdbd	-0.029517049
47	0x3c6bbd99	0.014388465
48	0xbc944765	-0.01810045
49	0xbca1b61e	-0.01974016
50	0x3d03fc76	0.032223187
51	0xbc85d2ad	-0.01633581
52	0xbc69dda5	-0.014274036
53	0x3c1bb314	0.009503145
54	0x3cdb3242	0.026757363
55	0x3ccda49d	0.025102908
56	0x3c2396cf	0.009984686
57	0x3a67daa0	0.00088445283
58	0xbb1b0a21	-0.002365716
59	0x3b3fd64e	0.0029272023
60	0xbccf4127	-0.025299622
61	0xbca268ec	-0.019825421
62	0xbd1b511e	-0.037919156
63	0x3c4c4fcd	0.012470198
64	0x3cd82e38	0.026389226
65	0x3c0459e0	0.0080780685
66	0xbd1d6dfc	-0.038434967
67	0xbcd62887	-0.026142372
68	0xbc47f046	-0.012203282
69	0x3c246fec	0.01003645
70	0x3d0d68b0	0.034523666
71	0x3c971d5b	0.018446615
72	0xbd1168ca	-0.035500325
73	0xbcfcf201	-0.030877115
74	0x3c0fc9c5	0.008776133
75	0xbb886735	-0.004162694
76	0x3c846806	0.016162883
77	0x3b8b2369	0.0042461646
78	0xbc3d0f46	-0.011539286
79	0xbcf53682	-0.029933218
80	0x3a45c102	0.0007543714
81	0xbbf83cb8	-0.0075755976
82	0xbc7bb211	-0.015362279
83	0x3d54e6cf	0.05197793
84	0xbc34d4b7	-0.011037043
85	0x3c1a31aa	0.009411255
86	0xbd195d1f	-0.037442323
87	0x3acd0738	0.001564241
88	0x3d4abd1a	0.049496748
89	0xbc9c5921	-0.019085469
90	0xbd81e754	-0.063429505
91	0x3c9a425f	0.018830476
92	0x3c912108	0.017715946
93	0x3c4eff74	0.012634147
94	0x3cf6fd8c	0.030150197
95	0xbd02ebb8	-0.03196308
96	0xbce6b3c1	-0.028161885
97	0xbc2f1ea3	-0.010688457
98	0x3ad692c3	0.0016370643
99	0x3cf817ec	0.030284844
100	0xbccbdf87	-0.02488686
101	0x3b8611b4	0.004091466
102	0x3d3c046b	0.04590265
103	0xbccf6a12	-0.025319133
104	0xbd161b10	-0.036646903
105	0x3b8f42a7	0.0043719593
106	0x3c9b067f	0.018923996
107	0xbcca356c	-0.024683677
108	0x3c967616	0.018366855
109	0xbc929c8d	-0.017896915
110	0xbd0d178c	-0.034446284
111	0xbd0c81d8	-0.034303516
112	0x3d5117cb	0.05104808
113	0xbd2c8b3e	-0.04212498
114	0x3d1e1052	0.038589783
115	0xbbc0ea53	-0.0058873086
116	0x3c9648bf	0.018345235
117	0x3d0789df	0.03309047
118	0x3cebc91e	0.028782424
119	0x3c9b5ba4	0.018964596
120	0xbb8f0349	-0.0043644053
121	0xbb80c18b	-0.003929322
122	0x3d1abe6d	0.03777926
123	0xbc397325	-0.0113189565
124	0x3ca6d18a	0.020363588
125	0xbd167ec6	-0.036741994
126	0xbbe0ece0	-0.006864175
127	0x3b884b23	0.0041593476

fc2.weight f4 [10, 128]
0	0x3dfec797	0.124404125
1	0xbc39974b	-0.011327575
2	0x3db608c7	0.08888393
3	0xbdbb7883	-0.09153845
4	0xbd4e5eae	-0.050383262
5	0xbd88f614	-0.06687561
6	0x3d34c9d0	0.044137776
7	0xbe578cc1	-0.21049787
8	0xbe41aeb0	-0.18914294
9	0x3cedba93	0.02901963
10	0xbd1db721	-0.038504723
11	0xbd1e2c63	-0.03861655
12	0xbce79061	-0.028267087
13	0x3e256566	0.16151962
14	0xbe70cb43	-0.23515038
15	0xbd3b526a	-0.045732893
16	0x3dd81b9f	0.10552143
17	0x3dae30b6	0.085053846
18	0xbe0801ea	-0.1328198
19	0xbd7c5d2d	-0.061612297
20	0x3da01c9f	0.07817959
21	0x3dd8ba58	0.10582417
22	0xbc59f320	-0.013302594
23	0xbe17dedd	-0.1483111
24	0xbec85243	-0.3912526
25	0xbd00f5cc	-0.03148441
26	0x3c9ddc90	0.019270211
27	0x3da751b1	0.08169878
28	0x3c1079fc	0.008818146
29	0x3decb4e0	0.11557937
30	0xbe96a821	-0.29425147
31	0xbda3fb6c	-0.08006939
32	0xbe961641	-0.29313853
33	0xbe716223	-0.23572592
34	0xbd9f808a	-0.07788189
35	0x3e005a86	0.12534532
36	0x3daacb32	0.08339538
37	0x3d8a71e5	0.06760005
38	0xbbf21174	-0.0073873345
39	0x3dc1e096	0.094666645
40	0xbea94005	-0.33056656
41	0xbe877830	-0.26458883
42	0x3df21cab	0.11821874
43	0xbc7880dd	-0.015167442
44	0x3d851bf2	0.06499471
45	0x3d9a66e7	0.07539158
46	0xbe2cc9a1	-0.1687379
47	0xbccb3164	-0.024803825
48	0xbdaf6a8d	-0.08565245
49	0x3d1defe2	0.03855885
50	0x3e7c60e7	0.2464634
51	0x3d1b0a39	0.037851546
52	0x3c17ed36	0.009272864
53	0x3dd02d9d	0.1016495
54	0xbe195914	-0.14975387
55	0x3dd587bc	0.1042628
56	0x3d66e068	0.056366354
57	0xbccb84db	-0.024843624
58	0x3d233aac	0.039850876
59	0xbd5f66e4	-0.054541484
60	0x3df24ee7	0.11831456
61	0x3e2fb9bb	0.17160694
62	0xbe6e8710	-0.2329371
63	0x3d8d6a27	0.069050126
64	0x3e39be8e	0.18139097
65	0xbdd4ecbc	-0.10396716
66	0xbdb07467	-0.08615952
67	0xbe720c49	-0.23637499
68	0x3e234358	0.15943658
69	0xbbd2b3d8	-0.0064301305
70	0xbda37665	-0.07981566
71	0xbe266add	-0.16251703
72	0xbd0a14ff	-0.03371143
73	0x3d2a70ae	0.041611366
74	0x3d9e9464	0.07743147
75	0xbd175e2a	-0.036955036
76	0xbe62b388	-0.22138798
77	0x3dbf7776	0.09348957
78	0xbe1f1ae2	-0.15537599
79	0xbd964e43	-0.07339146
80	0x3d83ceae	0.064359054
81	0x3da0f09b	0.07858392
82	0xbd42827e	-0.04748773
83	0xbe5b798e	-0.21433088
84	0xbdbfdc25	-0.09368161
85	0xbe8476ae	-0.25871795
86	0x3e20ecc9	0.15715326
87	0xbde0f818	-0.1098482
88	0xbe5e34e9	-0.21699871
89	0x3e3c1c87	0.18370257
90	0xbe5a5fba	-0.2132558
91	0x3d56737a	0.05235622
92	0xbd9cda1c	-0.076587886
93	0xbeadc516	-0.33939427
94	0x3e2cc43a	0.1687173
95	0x3d4f6374	0.050631955
96	0x3deb84e8	0.11499959
97	0xbde7e567	-0.11323052
98	0xbd3f7f19	-0.04675207
99	0x3dbfd54f	0.09366857
100	0xbe6fe6a2	-0.23427823
101	0x3e488d6a	0.19585195
102	0x3caf56c5	0.02140368
103	0x3c4113a3	0.011784467
104	0x3e00c04f	0.1257336
105	0x3d33bf73	0.043883752
106	0x3d58aab3	0.052897166
107	0x3d90939d	0.07059405
108	0x3d503c6f	0.050838884
109	0x3bd7b7a7	0.0065831724
110	0xbe0b625e	-0.13611743
111	0xbdb06ff2	-0.08615102
112	0x3d5cb434	0.053882793
113	0xbe7cca67	-0.24686585
114	0x3df2af85	0.11849884
115	0xbd99b065	-0.07504348
116	0xbeee3289	-0.4652293
117	0xbdc5e4d5	-0.09662787
118	0xbd306a10	-0.0430699
119	0x3de95666	0.11393432
120	0xbe70b0f8	-0.23505008
121	0xbe8ca448	-0.27469087
122	0x3d8c8c59	0.06862707
123	0x3de06eed	0.109586574
124	0xbe7a83d7	-0.24464355
125	0x3e240ccf	0.16020511
126	0xbd63a32a	-0.055575527
127	0x3da2b528	0.07944709
128	0x3c30a9db	0.010782684
129	0xbea73f1b	-0.32665333
130	0x3d12181e	0.03566753
131	0xbc5f70ae	-0.013637705
132	0xbe809c85	-0.25119415
133	0xbc830fc4	-0.015998729
134	0xbcc0d547	-0.023539199
135	0xbbfe0355	-0.007751862
136	0x3d5d5b49	0.054042134
137	0x3d84dbc6	0.06487231
138	0xbe9d4973	-0.307201
139	0xbc3a601f	-0.011375456
140	0x3d0c8bfe	0.034313194
141	0xbe0ee7ce	-0.13955614
142	0xbe5fc8a7	-0.21853887
143	0xbde3c4cf	-0.11121523
144	0x3e8879fa	0.2665556
145	0xbdfe61a1	-0.12420965
146	0xbe2498be	-0.16073892
147	0x3d9dc321	0.077032335
148	0xbe265549	-0.16243471
149	0x3db4b6b0	0.088239074
150	0x3da3619b	0.07977601
151	0x3b6d6ba6	0.0036227494
152	0x3d8d00d9	0.06884927
153	0xbe897201	-0.2684479
154	0xbe8f8f6e	-0.28039116
155	0xbdea584f	-0.11442625
156	0xbe4ae92c	-0.1981551
157	0x3e74882b	0.23880069
158	0x3cf1380f	0.029445676
159	0x3d9d411e	0.07678436
160	0xbe560f7d	-0.20904346
161	0x3da2b606	0.079448745
162	0x3e3b92bd	0.18317695
163	0xbe92703e	-0.2860126
164	0x3d4dbcaa	0.050228752
165	0xbe8439b9	-0.2582529
166	0xbe59a1c0	-0.21253109
167	0x3e8cd933	0.2750946
168	0x3cf2c4db	0.029634884
169	0x3ddebaee	0.10875498
170	0x3d4f21dd	0.050569404
171	0x3e1a42aa	0.15064493
172	0xbd60db58	-0.054896683
173	0xbdfeb30e	-0.12436496
174	0xbd4285ac	-0.04749076
175	0xbde4c82c	-0.11170992
176	0xbd2c4e81	-0.042067055
177	0x3e6ec13a	0.23315898
178	0xbe3c880d	-0.18411274
179	0xbd9eafad	-0.07748351
180	0xbe13a663	-0.1441894
181	0xbe258e0f	-0.16167472
182	0xbe1a588b	-0.15072839
183	0xbe9740a4	-0.29541504
184	0x3cddf794	0.027095594
185	0x3e7f3b1d	0.24924894
186	0x3e34fb2c	0.1767394
187	0x3c060aa3	0.008181247
188	0xbe5723f8	-0.21009815
189	0xbe1732f1	-0.14765526
190	0x3e304894	0.17215186
191	0xbe3be994	-0.18350822
192	0x3ece904e	0.4034447
193	0xbdce7d53	-0.100824974
194	0xbda2b8ed	-0.07945428
195	0x3dc7874d	0.097426035
196	0xbe89b8de	-0.26898855
197	0xbe3cb197	-0.1842712
198	0xbd8426a4	-0.064526826
199	0x3d4f4dce	0.05061131
200	0x3d2c63bd	0.042087305
201	0xbce11af9	-0.027478682
202	0x3d84b2eb	0.064794384
203	0xbe51a6c2	-0.2047377
204	0x3d9beabc	0.076131314
205	0xbdaca61d	-0.08430121
206	0x3d7b48e0	0.061348796
207	0xbcb2d714	-0.021831073
208	0xbd8c3a2d	-0.06847034
209	0x3ce65e05	0.028121004
210	0x3dbec8d3	0.09315648
211	0xbed85f44	-0.42260182
212	0xbd92d990	-0.07170403
213	0x3d111cda	0.035427906
214	0x3e846659	0.25859335
215	0xbe0215d6	-0.12703642
216	0x3d750059	0.059814785
217	0x3db0d040	0.086334705
218	0x3e1e4119	0.1545452
219	0xbdf977f8	-0.12181085
220	0xbd923147	-0.07138305
221	0x3d29b428	0.041431576
222	0x3dac1b7e	0.08403681
223	0xbe5e742e	-0.21724007
224	0x3d5c709a	0.053818323
225	0x3eac340b	0.33633456
226	0x3d1f72f6	0.038927995
227	0xbe1d7c7c	-0.15379518
228	0x3e0c7483	0.1371632
229	0xbe7c19ef	-0.24619268
230	0xbdc49a95	-0.09599797
231	0xbc21ce68	-0.009875871
232	0xbe0f82c6	-0.1401473
233	0x3ca3658c	0.019945882
234	0x3d18ada7	0.037274983
235	0xbdde4756	-0.1085345
236	0x3cf7e901	0.030262472
237	0xbe61978f	-0.22030471
238	0x3d078671	0.033087198
239	0xbe37c74c	-0.1794712
240	0x3dd70806	0.10499577
241	0x3b87ec14	0.0041480158
242	0xbdac5b57	-0.08415859
243	0x3d57bc8e	0.052670054
244	0xbcfdfee1	-0.031005325
245	0xbe39a8c7	-0.1813079
246	0xbe23ca42	-0.15995124
247	0xbec5f6f0	-0.3866496
248	0x3dfa4571	0.12220276
249	0x3cf53868	0.029934123
250	0xbde89730	-0.11356962
251	0xbda040f1	-0.078248866
252	0xbe0ab3e5	-0.13545187
253	0x3ce25276	0.027627211
254	0x3da37c35	0.07982675
255	0xbdfd0249	-0.123539515

fc2.bias f4 [10]
0	0x3d4e9b6a	0.050441183
1	0xbd3afe30	-0.04565257
2	0xbd9288bb	-0.071549855
3	0xbc0b3ea7	-0.008498824
4	0x3cb4bf74	0.022063948
5	0xbd4f0bf0	-0.050548494
6	0xbd446278	-0.04794547
7	0x3cadda2f	0.021222202
8	0x3e009854	0.12558109
9	0x3d8eb426	0.06967954
